model500.pth (torch, 87052 bytes, 124 tensors)

weight f4 [13]
0	0x3f83fcc6	1.0311515
1	0x3fa4b62d	1.2868096
2	0x3f942ce7	1.1576203
3	0x3f923f05	1.1425482
4	0x3fa83ec0	1.314415
5	0x3f4d6bdd	0.8024271
6	0x3f66d5c9	0.9016996
7	0x3f85b3f3	1.0445541
8	0x3f7893c4	0.9710047
9	0x3f7eb83f	0.9949989
10	0x3f832520	1.0245705
11	0x3f8437bf	1.0329512
12	0x3f664960	0.8995571

bias f4 [13]
0	0x3d6430a8	0.055710465
1	0x3dce73c0	0.10080671
2	0x3ddb50ac	0.10708746
3	0xbcee7fe5	-0.02911372
4	0xbd6cabe2	-0.057781108
5	0x3d4cfd96	0.050046526
6	0xbd8ce3ca	-0.06879385
7	0x3d8bc40e	0.06824504
8	0x3cdc4b55	0.02689139
9	0xbd8dca6a	-0.06923373
10	0x3d39d38e	0.04536777
11	0x3d853541	0.06504298
12	0x3dee139c	0.11624834

running_mean f4 [13]
0	0x44fc869b	2020.2064
1	0x42622752	56.5384
2	0x42e165db	112.69894
3	0x40cd3f66	6.413989
4	0x4516152d	2401.3235
5	0x4b9a2226	2.0202572e+07
6	0x3d6244d7	0.055241432
7	0x3f01a078	0.5063548
8	0x3eabfd84	0.33591855
9	0x3eb15d80	0.34641647
10	0x3eb8669e	0.3601579
11	0x3e9e582e	0.3092665
12	0x3e4b1a38	0.1983422

running_var f4 [13]
0	0x406dc759	3.7152922
1	0x45885aa7	4363.3315
2	0x43c7f88e	399.94183
3	0x3f41f5d4	0.7576573
4	0x49c4a796	1.6109948e+06
5	0x4de38e6b	4.772202e+08
6	0x3d569840	0.05239129
7	0x3e8049ae	0.25056213
8	0x3e640ff2	0.22271708
9	0x3e673965	0.22580488
10	0x3e6d0279	0.23145474
11	0x3e593531	0.21211697
12	0x3e22e1af	0.15906404

weight f4 [32, 13]
0	0xbd16e317	-0.036837664
1	0xbd8ad7be	-0.06779431
2	0x3de291da	0.11062975
3	0xbcff6d6f	-0.031180112
4	0x3c0cb2d5	0.008587559
5	0xbe017d6b	-0.126455
6	0xbe62651c	-0.22108883
7	0x3d97e88a	0.074174
8	0xbe33ecda	-0.1757082
9	0x3da0315d	0.07821915
10	0xbd2229e0	-0.039590716
11	0x3e630f6f	0.22173856
12	0xbe334127	-0.17505322
13	0xbe841b68	-0.2580216
14	0xbe1d499f	-0.15360115
15	0x3e55bef8	0.2087363
16	0xbd0e6a56	-0.03476938
17	0xbd924ccd	-0.07143555
18	0xbe5105bb	-0.20412342
19	0xbc8647b6	-0.016391616
20	0xbd961b8d	-0.07329474
21	0x3c8cf3c1	0.017206075
22	0xbe1eb597	-0.15498959
23	0x3d8effc9	0.06982381
24	0x3dc6ea85	0.097127
25	0xbdb3667e	-0.08759783
26	0xbd7ee5a0	-0.062230706
27	0xbe42aea9	-0.1901194
28	0x3db7b7ac	0.089705795
29	0xbe2a93a9	-0.1665789
30	0x3d7f0e08	0.06226924
31	0x3cb5093e	0.022099134
32	0xbda635a0	-0.08115697
33	0x3d80fba8	0.062979996
34	0xbdbce8a5	-0.09224061
35	0xbe29449f	-0.16530083
36	0xbb084b3c	-0.0020796796
37	0xbe1750d4	-0.14776927
38	0x3e21855c	0.15773529
39	0xbcbe3870	-0.02322027
40	0xbe7f235c	-0.24915832
41	0xbdf7a692	-0.12092318
42	0xbc976353	-0.018479979
43	0x3e571417	0.21003757
44	0x3d37e701	0.044898037
45	0x3de49da2	0.111628786
46	0x3dc8a2b8	0.09796661
47	0xbd8ecd2c	-0.06972727
48	0x3cd36a09	0.025807397
49	0x3e0e3e81	0.13891031
50	0xbe39d089	-0.18145956
51	0xbdf57274	-0.11984721
52	0xbc524100	-0.01283288
53	0xbe6bec93	-0.23039465
54	0x3da71765	0.08158759
55	0x3e757aa0	0.23972559
56	0xbd205cdc	-0.039151058
57	0x3e2f7506	0.17134485
58	0xbe28d137	-0.16486059
59	0xbdc2704a	-0.09494074
60	0x3d93c2ef	0.07214915
61	0xbe658aae	-0.22416183
62	0x3e44eeff	0.19231795
63	0x3cf60a0e	0.030034091
64	0x3e6b3c12	0.22972134
65	0x3dcdee05	0.10055164
66	0x3d81e38c	0.06342229
67	0x3d8afbdb	0.06786319
68	0xbe864c77	-0.26230213
69	0xbdfba458	-0.122872055
70	0x3e049a64	0.1294952
71	0x3dcc9046	0.099884555
72	0x3e6c73c7	0.2309104
73	0xbdfe2c6b	-0.12410816
74	0xbdea0e59	-0.11428518
75	0xbe59b84e	-0.21261713
76	0x3dbb07f2	0.09132375
77	0x3de88c4d	0.11354885
78	0x3d231d5b	0.039822917
79	0x3e2a0a55	0.16605504
80	0xbe03035c	-0.1279425
81	0x3e3a3ed6	0.18188033
82	0xbd8051e5	-0.0626562
83	0xbdd4c068	-0.10388261
84	0xbce63a2b	-0.028103909
85	0xbcc3ec31	-0.023916336
86	0xbce040ad	-0.02737459
87	0xbe36bed7	-0.17846237
88	0xbd94062b	-0.07227739
89	0xbdda3727	-0.10655051
90	0x3cfc49c5	0.030796895
91	0x3d5cd79d	0.053916562
92	0x3d950165	0.072756566
93	0x3e4f07e1	0.2021785
94	0xbc5e00a1	-0.013549955
95	0xbddb6523	-0.1071265
96	0xbded26cd	-0.11579666
97	0xbd8fba18	-0.070179164
98	0x3e6d0915	0.23147996
99	0xbd2245f6	-0.0396175
100	0xbcd05465	-0.025430867
101	0x3e31c98d	0.17362042
102	0xbd79f0e2	-0.06102074
103	0xbe5cfbf6	-0.2158049
104	0x3e4706da	0.19436207
105	0x3e567292	0.20942143
106	0xbe50571b	-0.20345728
107	0xbd15f7d9	-0.03661332
108	0xbd8eafd0	-0.06967127
109	0xbd9434ca	-0.07236631
110	0xbde9828f	-0.11401855
111	0x3e0d2ece	0.13787386
112	0xbdf735d1	-0.120708115
113	0x3dc8ab4a	0.09798296
114	0xbd425c95	-0.047451574
115	0xbb344cf1	-0.002751168
116	0xbdbd0ef2	-0.09231366
117	0xbdb6a4ad	-0.08918128
118	0x3e22a2ee	0.15882465
119	0xbc970e8a	-0.01843955
120	0x3e5b59af	0.2142093
121	0xbe023c08	-0.12718213
122	0x3d8bc7a4	0.06825188
123	0x3baa2845	0.005192789
124	0x3d28a4b7	0.04117271
125	0x3d9b740b	0.07590493
126	0x3d22c2d8	0.0397366
127	0x3ea6d2a8	0.32582593
128	0xbdf65d34	-0.12029496
129	0xbab461a0	-0.0013762005
130	0xbce41ea6	-0.027846646
131	0x3d2f3dc9	0.042783532
132	0x3d3a6eb6	0.04551574
133	0x3d6b0c61	0.057384852
134	0x3e0ddf8c	0.13854808
135	0xbd939955	-0.0720698
136	0x3cf0470f	0.029330758
137	0x3bf4d47f	0.0074716206
138	0xbe40799e	-0.18796393
139	0xbe365ffe	-0.17810056
140	0xbe00b6c3	-0.12569718
141	0xbe0e8acb	-0.13920133
142	0xbd7f8b3c	-0.062388644
143	0x3e23fa4e	0.16013452
144	0xbe244e44	-0.16045481
145	0xbe84d2c4	-0.2594205
146	0xbe074dd9	-0.1321329
147	0x3dc63c5a	0.0967948
148	0xbe251795	-0.16122277
149	0x3d2a1a30	0.04152888
150	0x3d496cf9	0.04917619
151	0xbe43cb1d	-0.1912045
152	0xbdf17cad	-0.11791358
153	0xbda6c51b	-0.08143064
154	0x3dffc6ed	0.12489114
155	0xbd5dca45	-0.054147977
156	0xb907e8ff	-0.00012961401
157	0xbcbcb7d1	-0.02303687
158	0xbe4635d5	-0.19356473
159	0xbe1127d4	-0.1417535
160	0xbd7dc211	-0.061952654
161	0xbdd00a75	-0.101582445
162	0x3dc2fff1	0.09521473
163	0xbc9eef7d	-0.019401306
164	0xbd64a9fd	-0.055826176
165	0x3d91939e	0.07108234
166	0x3e06b135	0.13153537
167	0x3e17d361	0.14826728
168	0x3e3790e1	0.1792636
169	0xbc3e5355	-0.011616548
170	0xbb92cec1	-0.0044802134
171	0x3e1ace9e	0.1511788
172	0x3ce00f71	0.027351113
173	0x3ecea5b3	0.40360793
174	0x3cbebe45	0.023284087
175	0x3d2282bd	0.039675463
176	0xbd21894d	-0.03943758
177	0xbc892db8	-0.016745433
178	0x3db17b6f	0.08666121
179	0xbdbb0428	-0.09131652
180	0xbd45a053	-0.0482486
181	0xbdcd210c	-0.10016069
182	0x3d98e490	0.0746547
183	0xbe68fcea	-0.22752729
184	0x3e845850	0.25848627
185	0xbe17c57f	-0.14821433
186	0x3d0c1910	0.03420359
187	0xbd45fd5f	-0.048337337
188	0xbc67759a	-0.0141271595
189	0x3d835e7e	0.06414507
190	0xbd9cc1b9	-0.07654137
191	0xbe72faf2	-0.2372854
192	0xbc29401c	-0.010330226
193	0xbdb661af	-0.089053504
194	0x3e10eef5	0.14153655
195	0xbcbfce2e	-0.023413744
196	0xbe06c552	-0.13161209
197	0x3e478d3b	0.19487469
198	0xbd8ed3e6	-0.0697401
199	0xbde1de42	-0.110287204
200	0x3e623fc0	0.22094631
201	0xbe664947	-0.2248889
202	0x3df77ad4	0.120839745
203	0x3cfe30cc	0.031029128
204	0x3da2aa26	0.079426095
205	0xbdda32ad	-0.10654197
206	0x3e3f6e98	0.18694532
207	0x3de643c3	0.11243393
208	0xbdcfdc04	-0.101493865
209	0x3ddde0d1	0.10833896
210	0xbe8c9afb	-0.2746199
211	0x3da88a54	0.08229509
212	0x3d8f9046	0.0700994
213	0xbdd8af92	-0.105803624
214	0x3cf0bc12	0.029386554
215	0x3d5133f4	0.051074937
216	0x3dcd53d7	0.10025757
217	0x3e374c1b	0.17900126
218	0x3c33cd25	0.010974203
219	0xbe16f261	-0.14740898
220	0xbe185410	-0.14875817
221	0xbd29660f	-0.041357096
222	0x3d9ca987	0.07649522
223	0xba9ab4de	-0.001180317
224	0xbde01be0	-0.10942817
225	0x3e497c84	0.19676405
226	0xbdc46305	-0.09589199
227	0x3ded26b8	0.11579651
228	0x3e39700e	0.18109152
229	0xbd5ec173	-0.054383706
230	0x3dde1be5	0.10845164
231	0xbe0a4c8a	-0.1350576
232	0x3d856177	0.065127306
233	0x3da2cdc2	0.079494014
234	0xbda78cad	-0.08181129
235	0x3c8178c2	0.015804652
236	0xbdd982b9	-0.106206365
237	0x3dbcf087	0.092255645
238	0xbcacdf9d	-0.02110272
239	0xbdcdeea7	-0.10055285
240	0x3cff44e2	0.031160776
241	0x3d7118a4	0.05886139
242	0xbe40f597	-0.18843685
243	0x3d8af6b7	0.06785338
244	0xbd9ce5bb	-0.07661005
245	0x3e23b27e	0.15986058
246	0x3de1f1a8	0.110324204
247	0x3c2894aa	0.0102893505
248	0xbe6a77cc	-0.22897261
249	0xbe035858	-0.12826669
250	0x3e79dc95	0.24400552
251	0x3d5057ee	0.050865106
252	0x3e78fcfa	0.24315253
253	0x3d568749	0.05237511
254	0xbca3b656	-0.019984405
255	0xbcb06585	-0.021532783

bias f4 [32]
0	0x35d81add	1.6101072e-06
1	0x34f8ba16	4.6328995e-07
2	0xb518bf75	-5.690302e-07
3	0xb4756c4b	-2.28568e-07
4	0x34c6d49a	3.7035062e-07
5	0xb5afc68a	-1.3096299e-06
6	0xb538ad3d	-6.8797436e-07
7	0x34562db0	1.9946924e-07
8	0x33e615cd	1.0714175e-07
9	0xb46f0bf3	-2.2262957e-07
10	0x34cbe38f	3.7977267e-07
11	0x34cf554a	3.861881e-07
12	0x32f70e17	2.8760992e-08
13	0xb5d7dcc0	-1.6082995e-06
14	0xb69646d6	-4.4785947e-06
15	0xb633fafd	-2.6819173e-06
16	0x3492dae9	2.7353897e-07
17	0x33976ef5	7.0516684e-08
18	0xb48eb77e	-2.658307e-07
19	0x34e09688	4.1832777e-07
20	0xb4977410	-2.8210388e-07
21	0x358496d7	9.878667e-07
22	0x3024287d	5.972039e-10
23	0x35faf710	1.8698356e-06
24	0xb5115ed5	-5.415471e-07
25	0xb443aeb6	-1.822435e-07
26	0x33223a14	3.7771386e-08
27	0x34ea9ca6	4.3699873e-07
28	0x359dbaf0	1.1751818e-06
29	0xb57799b9	-9.2238366e-07
30	0xb5a37b52	-1.2180337e-06
31	0x35b99c1e	1.382901e-06

weight f4 [32]
0	0x3f0b208e	0.5434655
1	0x3f0742e8	0.52836466
2	0x3f0d6b05	0.55241424
3	0x3efd332e	0.4945311
4	0x3f0c406e	0.5478581
5	0x3f1369c8	0.57583284
6	0x3edf12d5	0.43569055
7	0x3ef09c2c	0.4699415
8	0x3efc0df4	0.49229395
9	0x3f068383	0.5254442
10	0x3ebe8762	0.37212664
11	0x3f049046	0.51782644
12	0x3ecbcf20	0.3980646
13	0x3f03bbd6	0.5145849
14	0x3f1e3a9d	0.61808187
15	0x3eecc933	0.46247253
16	0x3f043b9d	0.5165346
17	0x3f01b6b4	0.5066941
18	0x3ed1c32e	0.40969223
19	0x3f0481ba	0.5176045
20	0x3ebf6343	0.37380418
21	0x3f0162c8	0.50541353
22	0x3f09e9c4	0.53872323
23	0x3ef97c37	0.4872758
24	0x3eed874f	0.46392295
25	0x3ee6365e	0.44963354
26	0x3f11abcc	0.56902766
27	0x3efa1bfe	0.4884948
28	0x3ef2a8b3	0.47394332
29	0x3f010b7b	0.5040814
30	0x3f0d6360	0.5522976
31	0x3eede118	0.46460795

bias f4 [32]
0	0xbe8d5c8d	-0.27609673
1	0xbeba07df	-0.3633413
2	0xbe3079f2	-0.17234018
3	0xbe83d744	-0.25750172
4	0xbdf31747	-0.11869674
5	0xbe3325e4	-0.17494923
6	0xbe3ac525	-0.18239267
7	0xbe8db0cc	-0.27673948
8	0xbe022583	-0.12709622
9	0xbe89bb13	-0.2690054
10	0xbdf5fe8e	-0.12011443
11	0xbe4981b4	-0.19678384
12	0xbe2fc430	-0.17164683
13	0xbe925270	-0.2857852
14	0xbe736eef	-0.23772787
15	0xbe8184e0	-0.25296688
16	0xbe8e94ef	-0.27848002
17	0xbe7116d1	-0.2354386
18	0xbe463f03	-0.19359975
19	0xbe7e3c8a	-0.24827781
20	0xbe381220	-0.17975664
21	0xbe8cde87	-0.27513525
22	0xbeaf6f11	-0.34264424
23	0xbe7ee1b9	-0.24890794
24	0xbe7f6b8f	-0.24943374
25	0xbe54c47d	-0.2077808
26	0xbe977328	-0.29580045
27	0xbe8aea4a	-0.27131873
28	0xbe0d7574	-0.13814336
29	0xbeb57c68	-0.35446477
30	0xbec85678	-0.3912847
31	0xbe72e71a	-0.23720971

running_mean f4 [32]
0	0x3907176d	0.0001288333
1	0xbb90cdf7	-0.004419084
2	0x3c8b4af9	0.017003523
3	0xbd93bd17	-0.072138004
4	0x3d463af8	0.04839608
5	0x3d838b36	0.06423037
6	0x3b21343d	0.0024597787
7	0x3d05379e	0.032523744
8	0x3b8f27fc	0.00436878
9	0x3ca697de	0.020336088
10	0xbca9cf0c	-0.02072861
11	0xbd2e6344	-0.042575136
12	0x3a52572f	0.00080238556
13	0xbd1b5ab8	-0.037928313
14	0x3d211f96	0.039336763
15	0x3d878245	0.06616644
16	0xbd919c9d	-0.0710995
17	0xbb71756f	-0.0036843678
18	0xbc1ec166	-0.0096896645
19	0xbd47caf4	-0.048777536
20	0xbbcd531f	-0.0062660123
21	0xbcaca0c6	-0.021072756
22	0x3c059990	0.008154288
23	0xbb603604	-0.0034211883
24	0x3b95510b	0.00455678
25	0x3cfbf3c5	0.030755887
26	0x3ca7d218	0.020485923
27	0x3d279a20	0.04091847
28	0xbafa2a79	-0.0019086144
29	0xbc1024bd	-0.008797822
30	0xbcb60f08	-0.022223964
31	0xbbac3a42	-0.0052559683

running_var f4 [32]
0	0x3e145724	0.14486367
1	0x3e87fa79	0.26558283
2	0x3e06e60b	0.13173692
3	0x3e7d0988	0.24710667
4	0x3e69fddb	0.22850744
5	0x3e89feaa	0.26952106
6	0x3dfdf4dc	0.12400219
7	0x3e67fc35	0.22654803
8	0x3de9aaf3	0.11409559
9	0x3e4c0d63	0.19926982
10	0x3dfc1ff4	0.12310782
11	0x3e6168e2	0.22012666
12	0x3e6dea82	0.23233989
13	0x3e9a5f4c	0.3015083
14	0x3e322c4c	0.1739971
15	0x3e0c80a2	0.13720945
16	0x3e493767	0.1965004
17	0x3e0e207b	0.13879578
18	0x3debdbec	0.11516556
19	0x3e488673	0.19582538
20	0x3e008218	0.12549627
21	0x3e65f938	0.2245835
22	0x3e573d71	0.21019532
23	0x3e63db1a	0.2225155
24	0x3e60bb9e	0.2194657
25	0x3e46b8f1	0.19406487
26	0x3e51c118	0.20483816
27	0x3e0ad26f	0.13556837
28	0x3e34ff63	0.17675547
29	0x3e087d58	0.13329065
30	0x3e186173	0.14880924
31	0x3e12f1ad	0.14350004

weight f4 [32, 32]
0	0xbdaf0c9a	-0.085473254
1	0xbd055908	-0.03255561
2	0xbcd6736b	-0.026178082
3	0x3bfc4955	0.0076991715
4	0xbdc3d216	-0.09561555
5	0xbdb3d204	-0.08780292
6	0x3d9c6b14	0.07637611
7	0xbd276a87	-0.040873077
8	0xbc923084	-0.0178454
9	0xbde954da	-0.11393137
10	0xbd511eb2	-0.051054664
11	0xbc8bdeb5	-0.017073968
12	0x3e086a16	0.13321719
13	0xbc8941cc	-0.016755007
14	0xbc82141a	-0.015878726
15	0xbd346e02	-0.044050224
16	0xbe3420f2	-0.17590693
17	0xbc18e5eb	-0.00933216
18	0x3d85fc4b	0.06542262
19	0x3ccf6276	0.025315505
20	0x3d6a0309	0.0571318
21	0xbd6c917c	-0.057755932
22	0xbc68af3c	-0.014201935
23	0xbe13e212	-0.14441708
24	0xbe332a26	-0.17496547
25	0x3cc6dd13	0.024275338
26	0x3dabf53e	0.083963856
27	0x3910e1ab	0.00013816978
28	0xbdb3d2cc	-0.08780441
29	0xbd067dbd	-0.032834757
30	0xbd10b089	-0.035324607
31	0xbd858116	-0.06518762
32	0x3d597004	0.053085342
33	0x3da32599	0.079661556
34	0xbd3f5e82	-0.04672099
35	0xbd97089f	-0.07374691
36	0xbd13ad01	-0.03605366
37	0xbe443618	-0.1916126
38	0xbc902ad9	-0.017598556
39	0xbdb6331d	-0.08896468
40	0xbb8a0d5a	-0.0042130174
41	0xbd9255de	-0.07145284
42	0x3bf16213	0.0073664277
43	0xbd9a61d5	-0.07538191
44	0x3d11fe9b	0.0356432
45	0x3e0ced1b	0.13762324
46	0xbe45a657	-0.19301735
47	0xbce00f26	-0.027350973
48	0xbdb47ac8	-0.08812481
49	0xbd0d65b8	-0.034520835
50	0xbdd1ff93	-0.10253825
51	0xbbbc391a	-0.0057441117
52	0xbcb39025	-0.02191932
53	0x3debf697	0.11521643
54	0xbe0201b6	-0.12695965
55	0xbd761f3d	-0.060088385
56	0xbcb026b6	-0.021502834
57	0x3b5b1349	0.0033428243
58	0x3d002daa	0.03129355
59	0xbdc9c549	-0.09852082
60	0x3d9d8e0f	0.07693111
61	0xba448929	-0.0007497245
62	0xbd1575f4	-0.036489442
63	0x3d86136a	0.06546672
64	0xbdf3ac19	-0.118980594
65	0x3d2039fc	0.0391178
66	0xbe0ca95a	-0.13736477
67	0xbde5e8d2	-0.112260476
68	0x3d5c278e	0.05374866
69	0x3e1ec934	0.1550644
70	0x3b8e7410	0.004347332
71	0x3c229778	0.009923808
72	0x3d9a7821	0.07542444
73	0x3df896cc	0.12138137
74	0xbd129a58	-0.035791725
75	0x3d18b93d	0.037286032
76	0x3d01e196	0.031709276
77	0xbd94976d	-0.07255445
78	0xbe0de100	-0.13855362
79	0xbd26e664	-0.04074706
80	0x3d845b34	0.06462708
81	0xbe09735f	-0.13422917
82	0xbc8b90e9	-0.017036872
83	0xbd950a75	-0.07277385
84	0x3d35b0e3	0.044358145
85	0xbe3b5749	-0.18295015
86	0xbda8e57d	-0.082468964
87	0xbc8e09ac	-0.017338596
88	0xbc7ea46b	-0.01554213
89	0x3d2fbf15	0.04290684
90	0xbd95add2	-0.07308544
91	0x3d196d26	0.037457608
92	0xbd04edb5	-0.032453258
93	0xbdeb6b8d	-0.11495123
94	0xbcd0a371	-0.02546856
95	0x3d4b8ffa	0.049697854
96	0xbd2a2902	-0.041543014
97	0x3db8e488	0.09027964
98	0xbc9d8163	-0.019226735
99	0x3d9700ce	0.073732
100	0xbc853b5f	-0.016263662
101	0xbdf9bdad	-0.12194381
102	0xbd407205	-0.046983737
103	0x3c666d17	0.014064095
104	0x3d905ada	0.070485786
105	0xbc9f3f6d	-0.019439423
106	0xbdcc5dee	-0.09978853
107	0xbd2c29eb	-0.042032164
108	0x3d4d32d7	0.050097313
109	0xbe46f682	-0.19429973
110	0xbe174927	-0.14773999
111	0x3ca8dcc3	0.02061308
112	0x3d3102b6	0.043215476
113	0xbc0b935a	-0.008519018
114	0x39c19375	0.00036921693
115	0xbde82a57	-0.11336201
116	0xbc227f31	-0.00991802
117	0xbe13abd6	-0.14421019
118	0x3da81197	0.0820648
119	0x3c68fb79	0.014220112
120	0xbc4a53ac	-0.0123490505
121	0x3d8331d2	0.06405987
122	0xba0acf94	-0.0005295214
123	0x3d533947	0.051568296
124	0xbe26c626	-0.16286525
125	0x3dd55f28	0.1041854
126	0xba4cd900	-0.0007814318
127	0xbc391d34	-0.0112984665
128	0x3ddfd3d7	0.10929077
129	0x3d51afa6	0.051192902
130	0x3cf9f344	0.030511506
131	0x3d4b45bc	0.04962705
132	0xbdd0b23e	-0.10190247
133	0x3d8a487d	0.06752107
134	0xbd54f791	-0.05199391
135	0x3d7aef3a	0.0612633
136	0x3d207221	0.03917134
137	0x3bb28f07	0.005449179
138	0xbce0d972	-0.027447436
139	0xbd812528	-0.06305915
140	0x3d8102d1	0.06299365
141	0x3dd6d138	0.10489124
142	0x3d811f44	0.063047916
143	0x3da909fa	0.08253856
144	0xbd3c7334	-0.046008304
145	0xbd173fde	-0.036926143
146	0xbe1b2506	-0.15150842
147	0xbdb25a99	-0.087086864
148	0x3e0432cd	0.12910004
149	0xbd2042c9	-0.03912619
150	0xbd941d9d	-0.07232211
151	0x3db525b0	0.08845079
152	0x3dabc161	0.083864935
153	0xbb8d3069	-0.0043087495
154	0x3d1e738e	0.03868442
155	0xbdb6a68e	-0.089184865
156	0xbc3ab02e	-0.011394544
157	0x3e81aeee	0.25328773
158	0xbe07daf4	-0.13267118
159	0xbd98d6ed	-0.07462869
160	0x3dc6e7e9	0.09712202
161	0x3d11aa02	0.035562523
162	0xbc87c3d7	-0.016572876
163	0xbd32f70c	-0.043692634
164	0x3da98a43	0.082783245
165	0xbcdce3d3	-0.026964104
166	0x3c8f1ad0	0.01746884
167	0x3c87ef7d	0.01659369
168	0xbd13d448	-0.03609112
169	0xbe0d194f	-0.13779186
170	0xbcacf063	-0.02111072
171	0x3cf29d29	0.029615955
172	0x3d66086e	0.056160383
173	0xbd97af94	-0.07406536
174	0xbc11f0cf	-0.008907511
175	0x3dba0d8d	0.09084616
176	0x3e0f1c35	0.13975604
177	0x3c93c994	0.018040456
178	0x3a4e2869	0.0007864298
179	0xbbabfb9f	-0.0052485014
180	0x3d71f6cc	0.059073254
181	0xbd638012	-0.05554206
182	0xbd8fe8d5	-0.07026831
183	0xbc5dce07	-0.01353789
184	0xbda0279e	-0.078200564
185	0xbdada3ad	-0.08478484
186	0x3deb9d6a	0.11504634
187	0xbe1db4a7	-0.15400945
188	0xbc6503f9	-0.013977998
189	0xbe45b79c	-0.19308323
190	0x3ddcc820	0.10780358
191	0xbe648c48	-0.22319138
192	0xbd97acb6	-0.07405989
193	0x3df78db3	0.12087574
194	0x3bbd99bd	0.0057861493
195	0x3dcde5a3	0.10053565
196	0xbdeec00b	-0.11657723
197	0xbd4163c3	-0.04721428
198	0x3ca6fc61	0.020384016
199	0x3bd16e58	0.006391328
200	0x3c95e365	0.018296907
201	0x3b22ee29	0.0024861193
202	0xbd5dda35	-0.054163177
203	0x3b6bb59c	0.0035966402
204	0xbdd2b31c	-0.10288069
205	0xbde63c44	-0.112419635
206	0xbe0fd400	-0.14045715
207	0xbda127f2	-0.07868947
208	0x3d91a25e	0.07111047
209	0xbd4ea2e3	-0.05044831
210	0xbcf405c6	-0.02978791
211	0xbcebf6ca	-0.028804202
212	0x3c50ba07	0.012739665
213	0xbe31bdc2	-0.17357543
214	0x3c9a0417	0.018800778
215	0xbc37349b	-0.011181976
216	0xba16c43a	-0.0005751286
217	0xbdd621ce	-0.104556665
218	0xbc98f3a7	-0.01867087
219	0x3e209685	0.15682419
220	0xbe114420	-0.14186144
221	0xbd601a66	-0.054712676
222	0x3d1924a2	0.03738845
223	0xbdabe35b	-0.08392974
224	0x3d6df8b4	0.05809851
225	0x3c28404e	0.010269238
226	0xbc02bff8	-0.007980339
227	0x3db8962f	0.0901302
228	0x3da57e0a	0.08080681
229	0xbd82cad3	-0.06386342
230	0x3dbce85a	0.09224005
231	0xbdd11a8b	-0.10210141
232	0x3bb6064e	0.005554951
233	0x3de39cf3	0.1111392
234	0xbe50f259	-0.20404948
235	0x3db25f14	0.08709541
236	0xbd9b453d	-0.075815655
237	0xbd8cb9af	-0.06871354
238	0xbdcea8c1	-0.10090781
239	0xbc34b7bf	-0.011030137
240	0x3c13980a	0.009008417
241	0xbd050e83	-0.032484543
242	0xbdab9d59	-0.08379621
243	0xbda15745	-0.078779735
244	0xbbdef9e8	-0.0068046935
245	0x3dddd454	0.10831514
246	0xbd6aaca7	-0.05729356
247	0x3d48d365	0.049029727
248	0x3cd3a888	0.025837198
249	0x3d8b92f9	0.06815142
250	0x3d17c989	0.037057433
251	0xbd4f37e5	-0.050590415
252	0x3dda0d7e	0.10647105
253	0x3d6a618b	0.05722193
254	0x3c36e431	0.0111628035
255	0x3def1e02	0.116756454

bias f4 [32]
0	0xb794f5e9	-1.7757486e-05
1	0x371016d0	8.58838e-06
2	0xb5d22f65	-1.5660013e-06
3	0xb68ca894	-4.19195e-06
4	0x36793fe1	3.7141074e-06
5	0x3634ab67	2.692186e-06
6	0xb6897324	-4.0963223e-06
7	0xb5dc24ad	-1.6401951e-06
8	0x35a16dff	1.2027448e-06
9	0xb61f826c	-2.3768762e-06
10	0xb4a88574	-3.1389538e-07
11	0xb59005d2	-1.073053e-06
12	0x36ed79b4	7.0773185e-06
13	0x36355808	2.7022343e-06
14	0x368858b0	4.0634404e-06
15	0x3649fea2	3.009955e-06
16	0x35fb85fe	1.8739954e-06
17	0xb652571b	-3.134314e-06
18	0x36277f4b	2.4959033e-06
19	0xb5e51d13	-1.7070291e-06
20	0x354b4846	7.5728565e-07
21	0x36299b44	2.527334e-06
22	0xb6eb47bd	-7.011897e-06
23	0x363e8d38	2.8394406e-06
24	0x35335f15	6.682106e-07
25	0x36ab57b9	5.1064094e-06
26	0xb76d59ca	-1.41472065e-05
27	0x366ccb23	3.5284982e-06
28	0x3800dbd6	3.0722316e-05
29	0xb6e83da7	-6.921316e-06
30	0x359886fb	1.1364167e-06
31	0xb5e499a0	-1.7032035e-06

weight f4 [32]
0	0x3e87cdb2	0.2652412
1	0x3ebdb12e	0.3704924
2	0x3eb45ba0	0.35226154
3	0x3e84ba7b	0.25923523
4	0x3e6976a2	0.22799161
5	0x3e710d65	0.23540266
6	0x3e8f7d9b	0.28025517
7	0x3e8f7abd	0.2802333
8	0x3e978c79	0.2959936
9	0x3eaf1472	0.34195286
10	0x3eadb86c	0.33929765
11	0x3ea2c22f	0.31788775
12	0x3ea7b802	0.32757574
13	0x3e8d74c3	0.27628145
14	0x3e84aa74	0.25911295
15	0x3ed7f228	0.42176938
16	0x3e757394	0.23969871
17	0x3ea45169	0.3209336
18	0x3ebeeb3b	0.37288842
19	0x3e9e2ecd	0.3089508
20	0x3e9dc35e	0.30813116
21	0x3e964296	0.29347676
22	0x3ee22afa	0.44173414
23	0x3eb36194	0.35035384
24	0x3e3efe51	0.18651702
25	0x3eaeb006	0.3411867
26	0x3e924bfc	0.28573596
27	0x3ea9cfe0	0.3316641
28	0x3e6503a6	0.22364673
29	0x3e9d7458	0.30752826
30	0x3ed21acc	0.4103607
31	0x3e891c71	0.26779512

bias f4 [32]
0	0xbdc4d777	-0.09611409
1	0xbe0e7e64	-0.13915402
2	0xbe37d640	-0.17952824
3	0xbdef2b9e	-0.11678241
4	0xbdaf7d3d	-0.08568809
5	0xbdd11c69	-0.10210497
6	0xbe117df0	-0.14208198
7	0xbdd5db9f	-0.1044228
8	0xbe3fb47a	-0.1872119
9	0xbd811b72	-0.06304063
10	0xbe2868d2	-0.16446236
11	0xbe140bcc	-0.14457625
12	0xbe0ea9e9	-0.13932003
13	0xbde89e6f	-0.11358344
14	0xbd884a0e	-0.0665475
15	0xbe3bc655	-0.18337376
16	0xbd052e88	-0.03251508
17	0xbe4d5011	-0.20050074
18	0xbe4832c3	-0.19550614
19	0xbe296204	-0.16541296
20	0xbe1d0df2	-0.15337351
21	0xbddb9475	-0.10721675
22	0xbe853d99	-0.26023558
23	0xbde12d73	-0.10994997
24	0xbdb037e7	-0.086044125
25	0xbe0a0ace	-0.13480684
26	0xbdef18a9	-0.116746254
27	0xbdee8679	-0.116467424
28	0xbe266689	-0.16250052
29	0xbdb6059e	-0.0888779
30	0xbe5d91ad	-0.21637602
31	0xbde27fed	-0.11059556

running_mean f4 [32]
0	0xbdd75f4e	-0.10516225
1	0xbdc32083	-0.095276855
2	0xbd649888	-0.055809528
3	0xbd9fa7ba	-0.07795663
4	0x3cd3b13b	0.025841346
5	0xbd153658	-0.03642878
6	0xbdd29252	-0.10281815
7	0x3c974fa1	0.018470587
8	0xbcbb0d24	-0.022833414
9	0xbc4db0f5	-0.012554397
10	0x3da979c1	0.08275176
11	0xbd93390d	-0.07188616
12	0xbd4cdecb	-0.05001716
13	0xbda42cf4	-0.08016387
14	0x3d30dbb4	0.043178275
15	0xbdd51d4c	-0.104059786
16	0x3da1768e	0.07883941
17	0xbdb88666	-0.090100095
18	0xbd8d9ce2	-0.06914689
19	0xbcf33f67	-0.029693319
20	0xbd97aa6e	-0.07405554
21	0xbd9a017d	-0.07519815
22	0xbdae8fc2	-0.085235134
23	0x3be4fe77	0.0069883424
24	0xbd9d7c24	-0.076896936
25	0xbc9d6f24	-0.019218035
26	0xbcd94c24	-0.026525564
27	0xbd9a7146	-0.075411364
28	0xbca24de6	-0.019812535
29	0x3d055dc2	0.032560118
30	0xbdcf7556	-0.10129802
31	0x3c5170e1	0.01278326

running_var f4 [32]
0	0x3c57ced8	0.013171874
1	0x3c838ed1	0.016059311
2	0x3c8d5e37	0.01725684
3	0x3c7b1bc3	0.015326443
4	0x3c806afc	0.015676014
5	0x3ca4a123	0.020096367
6	0x3c9e4135	0.019318203
7	0x3c41414b	0.011795352
8	0x3c7f030f	0.015564694
9	0x3c8c3c39	0.01711856
10	0x3c816980	0.015797377
11	0x3ca4d1af	0.020119516
12	0x3c7bdfdc	0.015373196
13	0x3c9998db	0.018749645
14	0x3c88f14f	0.016716627
15	0x3c95fa78	0.01830791
16	0x3c5ddc8b	0.013541351
17	0x3c595f93	0.013267416
18	0x3c674eba	0.014117891
19	0x3c5fec46	0.013667172
20	0x3c818454	0.01581017
21	0x3c8c0bdc	0.017095499
22	0x3c8a15c0	0.016856074
23	0x3c335f10	0.010947958
24	0x3c426c1d	0.0118665965
25	0x3cc735fd	0.024317736
26	0x3c4481a0	0.011993796
27	0x3cb09803	0.02155686
28	0x3c88f8c0	0.016720176
29	0x3c751174	0.014957774
30	0x3cb38023	0.021911686
31	0x3c357309	0.01107479

weight f4 [32, 13]
0	0x3e52803c	0.2055673
1	0x3e3a280a	0.18179336
2	0xbd33671a	-0.043799497
3	0x3e85bc5d	0.26120272
4	0xbe9469b8	-0.28986907
5	0x3e7e2460	0.24818563
6	0x3e2e6842	0.17031959
7	0x3cc0c115	0.023529569
8	0x3e068578	0.13136852
9	0x3d509910	0.05092722
10	0xbe5152af	-0.20441698
11	0xbe5c280a	-0.21499649
12	0x3dc27f2d	0.09496913
13	0xbe29e322	-0.1659055
14	0xbeb1bb44	-0.34713185
15	0x3df0c86d	0.11756978
16	0x3e1dd480	0.15413094
17	0x3eb5829c	0.3545121
18	0xbdbd8758	-0.092543304
19	0xbcad3384	-0.021142729
20	0xbeb9e119	-0.36304548
21	0xbd294f65	-0.041335482
22	0x3e5b1e2d	0.2139823
23	0x3e089d8a	0.13341346
24	0xbdd292ee	-0.10281931
25	0x3d8d33cd	0.06894646
26	0xbd35ad80	-0.044354916
27	0x3e39972e	0.18124077
28	0xbd862cc8	-0.0655151
29	0x3cc46d6d	0.02397796
30	0xbe8413af	-0.25796267
31	0x3de69e6c	0.11260685
32	0x3e00ebec	0.12589997
33	0x3d384acf	0.044993218
34	0x3e877486	0.26456088
35	0xbcb9ef28	-0.022697046
36	0x3ea45764	0.32097924
37	0x3ea0d01a	0.3140877
38	0xbcf7d4b9	-0.030252801
39	0xbe85ee78	-0.261585
40	0x3dea181d	0.114303805
41	0xbe9e91f1	-0.3097072
42	0xbed211dc	-0.4102925
43	0xbe3cc01e	-0.18432662
44	0xbde3eae5	-0.11128787
45	0xbd84198e	-0.06450187
46	0xbe853990	-0.2602048
47	0xbd90bffa	-0.070678666
48	0xbcb7a224	-0.022416182
49	0x3ed82522	0.4221583
50	0x3e180bf6	0.14848313
51	0x3e4bfe3c	0.19921201
52	0x3e8f5f40	0.28002357
53	0x3dc77429	0.09738953
54	0x3ec6cdef	0.3882899
55	0xbe6adb14	-0.22935134
56	0xbdf8dcde	-0.12151502
57	0x3e302793	0.17202596
58	0xbcf2067e	-0.029544111
59	0x3e82ecf5	0.2557141
60	0xbe9455d2	-0.28971726
61	0x3e314b89	0.1731397
62	0x3dbab869	0.09117205
63	0x3e66c8c4	0.22537524
64	0xbe34044e	-0.17579767
65	0xbdd3d65b	-0.103436194
66	0xbf3579d4	-0.7088902
67	0x3e28b4d0	0.16475224
68	0x3e29cc3d	0.16581817
69	0x3ce8f5ff	0.028437613
70	0xbd73b5fd	-0.05949973
71	0xbea6c3d8	-0.32571292
72	0x3e2f668e	0.17128965
73	0x3e8065ce	0.2507767
74	0x3d5b8382	0.053592212
75	0xbd253811	-0.040336672
76	0x3e085b77	0.13316141
77	0x3e47f0e5	0.19525488
78	0xbe73c19a	-0.23804322
79	0x3e387fac	0.18017453
80	0xbe10f5fd	-0.14156337
81	0x3de3af6a	0.11117442
82	0x3e171d07	0.14757167
83	0xbe475d8f	-0.19469284
84	0xbe8a91bf	-0.2706432
85	0x3e1656cc	0.14681548
86	0x3e1e1e95	0.15441354
87	0x3e190637	0.14943777
88	0xbe4f5a6f	-0.20249341
89	0xbeb8e9af	-0.36115786
90	0xbd8c2853	-0.06843629
91	0xbe0b1c9a	-0.1358513
92	0x3e94ca4e	0.29060596
93	0x3e473d3c	0.19456953
94	0xbd5367fa	-0.05161283
95	0x3cc9814c	0.024597786
96	0x3dd7d009	0.105377264
97	0x3dfbb3a9	0.12290127
98	0xbecdad9e	-0.40171522
99	0xbd486f7f	-0.048934456
100	0x3ce8d700	0.028422832
101	0xbce8b9ee	-0.02840897
102	0x3c0ed8e8	0.008718707
103	0x3dd876a1	0.10569502
104	0x3d94db0e	0.07268344
105	0xbe2e7cf3	-0.17039852
106	0x3e8ff8b4	0.28119433
107	0xbe28e0f8	-0.16492069
108	0xbe3aacaa	-0.18229929
109	0xbd9a372c	-0.075300545
110	0x3d7300be	0.05932688
111	0x3e330587	0.17482577
112	0xbe51a2e0	-0.20472288
113	0xbeb85fcf	-0.36010596
114	0xbe8e91d2	-0.27845627
115	0xbd544d07	-0.05183127
116	0x3df41d43	0.11919644
117	0xbea2619a	-0.3171509
118	0xbe9fe119	-0.31226423
119	0xbefcdb0b	-0.49385867
120	0x3e0ae38a	0.13563362
121	0xbeb6ecc3	-0.3572751
122	0xbe4ebe0f	-0.20189689
123	0xbdacda3e	-0.08440064
124	0xbe14b03a	-0.1452035
125	0x3c80dc82	0.015730146
126	0x3c4547dd	0.012041059
127	0x3ec1226f	0.37721583
128	0xbe8b3d03	-0.27194986
129	0xbe4ebac9	-0.2018844
130	0x3dcd4ce4	0.10024431
131	0x3db60a4d	0.088886835
132	0x3ecc94bc	0.39957225
133	0x3ec04322	0.37551218
134	0xbd2034fa	-0.039113022
135	0x3e100aa5	0.1406656
136	0x3cbc4dd7	0.022986336
137	0x3e5f7bcb	0.21824567
138	0x3d4789fc	0.048715577
139	0xbcb9983c	-0.022655599
140	0x3e4f25c3	0.20229249
141	0xbe9f03e1	-0.31057647
142	0x3e40eeed	0.18841143
143	0xbc8bae34	-0.01705084
144	0x3de02deb	0.10946258
145	0x3d365b82	0.044520862
146	0x3df76d6d	0.12081418
147	0xbc7261c9	-0.014793822
148	0xbd8ff7dc	-0.07029697
149	0x3ea7f839	0.32806566
150	0x3dadd0ec	0.08487114
151	0xbd898a3d	-0.0671582
152	0x3d3b83b0	0.045779884
153	0xbd9e3833	-0.07725563
154	0xbedcf2d2	-0.43154007
155	0x3e91e10b	0.28492007
156	0xbe613e80	-0.21996498
157	0xbb2ccdb6	-0.002636773
158	0xbb36b826	-0.0027880757
159	0x3ea662ae	0.32497162
160	0x3e1cafef	0.15301488
161	0xbd8bd9d4	-0.06828657
162	0x3d17c01f	0.037048455
163	0x3e8eeafb	0.2791365
164	0x3e7aa09c	0.2447533
165	0xbd815865	-0.06315688
166	0x3ebb56ff	0.3658981
167	0xbdc5cd22	-0.096582666
168	0x3e4ca88e	0.19986174
169	0x3ee10638	0.43950057
170	0x3ef579e9	0.47944573
171	0xbdcb2953	-0.09919991
172	0x3e3fe3ef	0.18739294
173	0xbe0c97d0	-0.13729787
174	0x3e9569a1	0.2918215
175	0x3dd28d92	0.10280909
176	0xbd8e6d26	-0.06954412
177	0xbe26bb4a	-0.16282383
178	0xbdb07e5e	-0.08617853
179	0xbd8736b7	-0.06602233
180	0x3e7f868d	0.24953671
181	0xbdf55ea4	-0.11980942
182	0x3e0c6e7f	0.13714026
183	0xbf13712f	-0.5759458
184	0xbde1f854	-0.11033693
185	0xbe6de97d	-0.232336
186	0x3df310de	0.118684515
187	0x3daecc65	0.08535079
188	0x3ddf1948	0.10893494
189	0x3cca16c7	0.024669064
190	0xbe8f23dd	-0.2795705
191	0x3d88b593	0.066752575
192	0xbd80f3db	-0.06296512
193	0xbe05db7b	-0.13072006
194	0xbe46c588	-0.1941129
195	0x3ebc840b	0.3681949
196	0xbc71348f	-0.014722004
197	0x3d9039c4	0.07042268
198	0x3de24548	0.110483706
199	0xbe061883	-0.13095288
200	0x3d1c812e	0.038209133
201	0x3e38b56f	0.18037961
202	0xbe9adbcf	-0.30245826
203	0x3d0f5c9f	0.03500044
204	0x3e6934b0	0.22774005
205	0xbd81c7be	-0.06336926
206	0x3e36f356	0.17866263
207	0xbe18d906	-0.14926538
208	0x3db9e5e6	0.09077053
209	0xbe027149	-0.12738527
210	0xbde75a38	-0.11296505
211	0xbec05549	-0.37565067
212	0x3e83e304	0.25759137
213	0x3e5c503e	0.21514985
214	0x3eb7cc68	0.35898137
215	0xbda9a1cc	-0.082828134
216	0x3d55871f	0.052130815
217	0xbd4796bd	-0.04872774
218	0xbe4735d9	-0.19454135
219	0x3aceb42e	0.001577025
220	0x3e167c29	0.14695801
221	0xbcb41caf	-0.021986334
222	0x3e8fbb1d	0.28072444
223	0x3e0afab2	0.13572195
224	0x3da2e3fb	0.0795364
225	0xbeab6cc6	-0.33481425
226	0xbd685c05	-0.05672838
227	0xbd9f219b	-0.077700816
228	0xbe142115	-0.14465745
229	0xbd45107d	-0.048111428
230	0xbe417f6a	-0.18896261
231	0x3e2396ba	0.15975466
232	0xbd88dc15	-0.06682602
233	0x3e6c0b9a	0.230513
234	0x3e14e9a8	0.14542258
235	0x3e8e5c53	0.27804813
236	0xbdc132d4	-0.09433523
237	0xbc3c27f9	-0.01148414
238	0xbe5096a6	-0.20369968
239	0x3e1f441f	0.1555333
240	0x3e1006fb	0.14065163
241	0x3dc07a03	0.09398272
242	0xbd8d0598	-0.068858325
243	0x3ea8dcbd	0.3298091
244	0x3be05f13	0.006847271
245	0xbe94ecbf	-0.29086873
246	0x3cee331e	0.029077109
247	0x3e3891b7	0.18024336
248	0x3d6df7a3	0.058097493
249	0xbea336c7	-0.3187773
250	0xbec12a52	-0.377276
251	0xbe062f18	-0.13103902
252	0x3dd6c9e2	0.10487725
253	0x3e150ce5	0.145557
254	0x3e83d156	0.25745648
255	0x3e68691e	0.22696349

bias f4 [32]
0	0x3e02f7c2	0.12789825
1	0x3e327d05	0.17430504
2	0xbd555f5e	-0.052092902
3	0xbd320066	-0.04345741
4	0xbe2735c6	-0.16329107
5	0x3dd1a581	0.102366455
6	0x3d9d86fe	0.07691763
7	0x3d85d0df	0.065339796
8	0xbd80058b	-0.06251057
9	0xbe0dd108	-0.1384927
10	0xbe0b5386	-0.1360608
11	0x3d3271f6	0.043565713
12	0x3de750ca	0.11294706
13	0x3d820816	0.063491985
14	0xbe137c10	-0.14402795
15	0xbd9d0079	-0.07666106
16	0x3d9f8ca4	0.07790497
17	0x3cfa9632	0.030589197
18	0x3cb9637d	0.022630448
19	0x3d065bcb	0.032802384
20	0x3e1a7a07	0.15085612
21	0x3e392ea8	0.18084204
22	0xbe4b0cc3	-0.19829087
23	0x3e18a017	0.1490482
24	0x3df4c5eb	0.11951812
25	0x3df19844	0.117966205
26	0xbcb1a36d	-0.021684373
27	0x3e3c5663	0.18392329
28	0xbdecbbb0	-0.11559236
29	0xbcbc6945	-0.022999415
30	0xbd3f745c	-0.04674183
31	0xbd6ef328	-0.05833736

weight f4 [32, 32]
0	0x3d906ae5	0.070516385
1	0xbba6f4c9	-0.0050950986
2	0x3d34d59d	0.04414903
3	0x3e029f91	0.12756182
4	0xbdef223c	-0.116764516
5	0x3dcb9e85	0.099423446
6	0xbe3ab370	-0.18232512
7	0xbd1c8b49	-0.03821877
8	0x3db1650c	0.08661851
9	0x3cc74d5d	0.024328882
10	0xbd05e839	-0.032692168
11	0x3cf725f5	0.030169467
12	0x3d252a78	0.040323704
13	0xbd207415	-0.039173204
14	0x3e1bb7b1	0.15206791
15	0xbd58a1bd	-0.05288862
16	0x3ccbe458	0.024889156
17	0xbdb50404	-0.088386565
18	0x3d390add	0.045176376
19	0xbca77180	-0.020439863
20	0xbdaa5fab	-0.083190285
21	0x3d3d1a30	0.046167552
22	0xbe0cbbe4	-0.1374355
23	0xbdbe6f06	-0.0929852
24	0x3e101c07	0.14073192
25	0x3d68dc7b	0.05685089
26	0x3d6eaf09	0.058272395
27	0x3b3ecf55	0.0029115279
28	0x3d25c93d	0.04047512
29	0x3cbae315	0.02281336
30	0x3c29d834	0.010366488
31	0x3c45ffcd	0.012084913
32	0x3ab93fe7	0.0014133424
33	0x3ca00861	0.019535245
34	0xbd9e088e	-0.077164754
35	0x3d9d601c	0.07684347
36	0xbe15f4ee	-0.14644215
37	0x3ca84ebc	0.020545356
38	0x3b0451b1	0.0020190293
39	0xbc40a959	-0.011759126
40	0x3d888323	0.06665637
41	0xbd0ebc0c	-0.034847304
42	0x3cd0a0dc	0.025467329
43	0x3db51e7b	0.08843704
44	0x3dfb1f38	0.12261814
45	0xbdb768e4	-0.08955553
46	0x3e1339b3	0.1437748
47	0x3d36dd88	0.044644862
48	0x3db52620	0.088451624
49	0xbc059a7f	-0.0081545105
50	0xbe4d63a5	-0.20057543
51	0xbc7cfda2	-0.01544133
52	0x3dac01e9	0.08398802
53	0x3d0554bd	0.032551516
54	0x3c1d0dd7	0.009585819
55	0xbd314c9a	-0.043285944
56	0x3dd91549	0.10599763
57	0x3de44c84	0.11147407
58	0xbcd7ae6b	-0.026328286
59	0xbca778df	-0.020443378
60	0x3db82773	0.08991899
61	0xbd94fa6f	-0.07274329
62	0xbdbceae9	-0.09224493
63	0x3dd32d39	0.1031136
64	0xbc2a93e1	-0.010411234
65	0xbe684808	-0.22683728
66	0xbdc5273f	-0.09626626
67	0x3d28fc18	0.04125604
68	0xbe12e56e	-0.14345333
69	0x3d91087e	0.07081698
70	0xbe0c2528	-0.13686049
71	0x3d987e9d	0.074460246
72	0x3d45fe33	0.048338126
73	0xbde6406c	-0.11242756
74	0xbb3abc58	-0.002849361
75	0x3d5389f7	0.051645245
76	0xbd62e541	-0.055394415
77	0xbd000457	-0.03125414
78	0x3d6a58c0	0.057213545
79	0xbe4af5bd	-0.19820304
80	0x3d3a678c	0.045508906
81	0x3c3ee7e2	0.011651965
82	0xbdf3052e	-0.11866222
83	0x3db477ac	0.08811888
84	0xbc879d58	-0.01655452
85	0x3e309641	0.17244817
86	0xbd0a143e	-0.03371071
87	0xbcac3b2b	-0.021024307
88	0xbc769bab	-0.015051763
89	0x3d356e8f	0.04429489
90	0x3dd89e15	0.10577027
91	0xbdeb8d0b	-0.11501511
92	0xbc06183b	-0.008184488
93	0x3ba923ed	0.0051617534
94	0xbc82a02a	-0.015945513
95	0x3cb6ac1c	0.022298865
96	0x3d3406c2	0.043951757
97	0x3cde5d08	0.02714397
98	0x3c9b61e2	0.018967573
99	0xbded831c	-0.11597273
100	0xbd328e83	-0.04359294
101	0x3e1b6be1	0.15177871
102	0xbc8e9420	-0.017404616
103	0xbd8e4b38	-0.069479406
104	0xbbbbf36b	-0.005735805
105	0xbcbb551a	-0.022867728
106	0xbd870b5a	-0.06593962
107	0xbdb4688d	-0.08809004
108	0x3d7e71b6	0.062120162
109	0x3da6e84d	0.081497766
110	0x3c8c171e	0.017100867
111	0xbb6c7ba1	-0.003608443
112	0xbcb76a84	-0.022389658
113	0xbe34140a	-0.1758577
114	0xbbde9568	-0.006792713
115	0x3e05d467	0.13069306
116	0x3db7905b	0.089630805
117	0x3d787b20	0.060664296
118	0xbc5d97a7	-0.013524926
119	0xbd6db5ea	-0.058034815
120	0x3c9670c9	0.018364327
121	0x3dde2cc7	0.10848384
122	0xbd073748	-0.033011705
123	0xbd14a7fb	-0.03629301
124	0xbe106f6e	-0.14105007
125	0xbc15ddb5	-0.009147097
126	0x3c4bc230	0.012436435
127	0x3dd5d773	0.10441484
128	0x3d5e9682	0.054342754
129	0xbe1ee258	-0.15516031
130	0x3cdf68b4	0.027271606
131	0x3e00454f	0.12526439
132	0x3e008a27	0.12552701
133	0x3cd1a676	0.02559207
134	0x3dc92434	0.09821358
135	0xbcea0eac	-0.02857145
136	0x3b34ec32	0.0027606604
137	0xbce11362	-0.027475063
138	0xbdf097f0	-0.1174773
139	0xbc8f3423	-0.017480915
140	0x3aec3ae4	0.0018022922
141	0x3e1b656e	0.15175411
142	0x3cdcac78	0.026937708
143	0x3cd3131d	0.02576595
144	0xbd60631f	-0.05478203
145	0xbd70bb6f	-0.0587725
146	0xbcccad65	-0.024985025
147	0xbca131c4	-0.01967705
148	0xbd0608cc	-0.032723233
149	0x3d7f117d	0.062272537
150	0xbe363781	-0.1779461
151	0xbcb4b990	-0.02206114
152	0x3c871104	0.016487606
153	0xbca9340c	-0.0206547
154	0xbe0d98e0	-0.13827848
155	0xbd8f8a23	-0.07008769
156	0xbe2b94a7	-0.16755925
157	0x3e012a50	0.12613797
158	0xbce34993	-0.027745044
159	0x3b9b5810	0.0047407225
160	0xbce7d2f2	-0.028298829
161	0x3ddab905	0.10679821
162	0x3d8ed94e	0.06975041
163	0xbc1b0e27	-0.009463823
164	0x3db3da86	0.087819144
165	0xbdcc6d02	-0.09981729
166	0xbd1261cf	-0.03573781
167	0x3dc437c0	0.09580946
168	0xbe39aa6e	-0.1813142
169	0xbc207133	-0.009792614
170	0xbc4f60ac	-0.012657326
171	0x3dd2af48	0.102873385
172	0x3cd6b746	0.026210438
173	0xbdd3c129	-0.10339577
174	0x3cd5a213	0.02607826
175	0xbd0c980d	-0.034324694
176	0x3e333b52	0.17503098
177	0x3dae5e50	0.085140824
178	0xbd751f4c	-0.0598443
179	0x3d3f9994	0.046777323
180	0x3e0170cb	0.12640683
181	0xbd122d0f	-0.035687502
182	0x3c8f5508	0.0174966
183	0x3d85a20d	0.06525049
184	0xbdf0c2cb	-0.11755904
185	0xbd459b5c	-0.048243865
186	0xbd6c7ada	-0.057734348
187	0xbd95c6f9	-0.07313342
188	0x3d833b3e	0.06407784
189	0x3d8c4bb7	0.06850379
190	0xbcedd0a9	-0.029030161
191	0x3bb367ec	0.005475035
192	0xbda50c78	-0.08059019
193	0x3d39973a	0.045310237
194	0x3db1151c	0.086466044
195	0x3d8a36d4	0.06748739
196	0x3d367646	0.044546388
197	0xbc44d3e0	-0.012013406
198	0x3cc4e3f6	0.024034481
199	0xbcf0ad05	-0.029379377
200	0xbcc6f22e	-0.024285402
201	0xbcea91ca	-0.02863397
202	0x3c3e0284	0.011597279
203	0x3d033f7e	0.032042973
204	0xbe088028	-0.13330138
205	0xbdde9a4b	-0.10869273
206	0xbe0312c6	-0.1280013
207	0xbe4bc66f	-0.19899915
208	0xbd0523cc	-0.03250484
209	0xbd8ce79a	-0.06880112
210	0xbd9e1789	-0.07719333
211	0x3d177df2	0.036985345
212	0xbd348b5e	-0.044078223
213	0x3ccd795b	0.02508228
214	0x3d545aca	0.051844396
215	0xbd119945	-0.03554656
216	0xbd2e3153	-0.042527508
217	0xbcf55899	-0.029949473
218	0xbdd263db	-0.10272952
219	0xbc828118	-0.015930697
220	0xbcc77677	-0.02434848
221	0xbd93f447	-0.072243266
222	0xbabc03c1	-0.001434438
223	0xbc982b29	-0.018575268
224	0xbe19a5d7	-0.15004669
225	0x3d308af2	0.04310126
226	0xbd053d44	-0.03252913
227	0xbdaaf536	-0.083475515
228	0x3e0afd15	0.13573106
229	0x3da9a0c5	0.082826175
230	0xbd84fe54	-0.06493822
231	0xbdf1496c	-0.11781582
232	0xbe370c63	-0.17875819
233	0xbd63ed70	-0.05564636
234	0xbd816946	-0.063189074
235	0xbd876d93	-0.066126965
236	0x3d81cc68	0.063378155
237	0xbc66fdca	-0.014098594
238	0xbb43a262	-0.0029851426
239	0x3df506b4	0.11964169
240	0xbe1292f1	-0.14313866
241	0xbd19c825	-0.03754439
242	0x3d867502	0.06565286
243	0x3d0bb2e0	0.034106135
244	0xbd8935da	-0.066997245
245	0xbbd74e14	-0.006570587
246	0x3cbff117	0.02343039
247	0x3bfffe05	0.007812264
248	0x3cf70cb6	0.030157428
249	0xbe0dc0bd	-0.13843055
250	0x3d50c693	0.050970625
251	0x3d18ae45	0.03727557
252	0x3c0cd956	0.008596739
253	0x3e060f85	0.13091858
254	0x3af4d5d9	0.0018679454
255	0x3dd6212d	0.104555465

bias f4 [32]
0	0xb5ad30a8	-1.2903665e-06
1	0xb7380e1d	-1.0970541e-05
2	0x3622cc11	2.4258663e-06
3	0x34ac93a4	3.214492e-07
4	0x355374fa	7.877385e-07
5	0x353998d8	6.914029e-07
6	0xb62d8722	-2.5857667e-06
7	0xb4e1aa16	-4.203327e-07
8	0xb58b43e3	-1.0376065e-06
9	0x358735a3	1.0073894e-06
10	0xb5f67b57	-1.8364325e-06
11	0xb5426b78	-7.242702e-07
12	0x3584a822	9.8837e-07
13	0xb40ab418	-1.2917769e-07
14	0x35891c5e	1.0215551e-06
15	0xb673ad88	-3.631083e-06
16	0x359aebe2	1.1542545e-06
17	0xb45c8856	-2.0538695e-07
18	0xb5a1c862	-1.2053754e-06
19	0x34c18beb	3.6050855e-07
20	0xb6172a23	-2.252528e-06
21	0xb438a97f	-1.7197998e-07
22	0xb631dce2	-2.6503626e-06
23	0x3515ec79	5.585094e-07
24	0x374a8371	1.2070742e-05
25	0x358bbaa3	1.0410625e-06
26	0xb6e4b79e	-6.8163054e-06
27	0xb55b42eb	-8.1681236e-07
28	0x35680565	8.6434585e-07
29	0x359af9e5	1.1546623e-06
30	0x35dc068a	1.639318e-06
31	0xb6156207	-2.225979e-06

weight f4 [32]
0	0x3ebcab87	0.36849615
1	0x3ed3fe28	0.41404843
2	0x3eddc2a3	0.4331256
3	0x3eb23f7f	0.3481407
4	0x3ede034f	0.433619
5	0x3eb9a892	0.3626142
6	0x3ea886c2	0.32915312
7	0x3eacb450	0.33731318
8	0x3edac5a1	0.42728904
9	0x3edb0aed	0.42781773
10	0x3ed4f61b	0.41594014
11	0x3eb304a1	0.3496447
12	0x3ec458d5	0.38349023
13	0x3ed46bf2	0.41488606
14	0x3ebef4a5	0.37296024
15	0x3ed00db6	0.4063546
16	0x3ed83caa	0.42233783
17	0x3ed2748a	0.41104537
18	0x3ee301e7	0.4433739
19	0x3ed240f5	0.41065183
20	0x3ed0de5d	0.4079465
21	0x3ece84e1	0.40335754
22	0x3eb9fef8	0.36327338
23	0x3ecc715e	0.39930242
24	0x3ed897c7	0.42303297
25	0x3edca571	0.43094972
26	0x3eddc556	0.43314618
27	0x3eb95d5b	0.36204037
28	0x3ece25d6	0.40263242
29	0x3ebc1805	0.36737075
30	0x3ebf63b1	0.37380746
31	0x3ebad7fa	0.36492902

bias f4 [32]
0	0xbe3aeef3	-0.18255214
1	0xbdca21ce	-0.09869729
2	0xbe081878	-0.13290584
3	0xbe0d15b5	-0.13777812
4	0xbe448dba	-0.1919469
5	0xbe7c7b67	-0.2465645
6	0xbd7b3034	-0.061325267
7	0xbe3fb23c	-0.18720335
8	0xbe729dd5	-0.2369302
9	0xbe0ac31c	-0.13550991
10	0xbde039ce	-0.10948525
11	0xbe1052f7	-0.14094149
12	0xbdbc6d39	-0.0920052
13	0xbe297bab	-0.16551082
14	0xbe1f4a6e	-0.15555736
15	0xbe3d6cfc	-0.18498605
16	0xbe6bbad5	-0.2302049
17	0xbe41196d	-0.18857355
18	0xbe60afc3	-0.21942048
19	0xbe3da621	-0.18520404
20	0xbe070207	-0.13184367
21	0xbe90343d	-0.28164855
22	0xbe2b8c83	-0.1675282
23	0xbe30b5a5	-0.17256792
24	0xbe0eeb23	-0.13956885
25	0xbe9ea950	-0.3098855
26	0xbe11de81	-0.14245035
27	0xbe1f16fb	-0.1553611
28	0xbde4d6b8	-0.11173767
29	0xbe14191c	-0.14462703
30	0xbdbfe4ca	-0.0936981
31	0xbdcc34d1	-0.099710114

running_mean f4 [32]
0	0x3dfd3743	0.12364056
1	0x3e1478de	0.14499232
2	0xbe0808e4	-0.13284642
3	0x3d03e2bd	0.032198656
4	0xbd3a88ac	-0.045540497
5	0x3d26df17	0.0407401
6	0xbe91a5d3	-0.28446826
7	0xbe1b33b9	-0.1515645
8	0x3eb31bc3	0.34982118
9	0x3ea63278	0.3246038
10	0x3e188b73	0.14896946
11	0xbd89fe88	-0.06738001
12	0x3e7c091d	0.24612851
13	0x3d5a9e98	0.053373903
14	0x3da9438c	0.08264837
15	0xbd245a7e	-0.040125363
16	0x3c03fb6b	0.008055548
17	0xbd5e841d	-0.05432521
18	0xbdadac34	-0.08480111
19	0x3d1fee7f	0.039045807
20	0x3d93ec5c	0.07222816
21	0x3e8c14a4	0.27359498
22	0xbda5096f	-0.0805844
23	0x3dc53b50	0.096304536
24	0x3e8aa0ec	0.270759
25	0x3e0d1811	0.13778712
26	0x3db06617	0.08613222
27	0x3be90c57	0.0071120667
28	0xbb90d0ff	-0.0044194455
29	0x3bc4aad5	0.00600181
30	0x3e864c2c	0.2622999
31	0xbe6c4fce	-0.23077318

running_var f4 [32]
0	0x3d5abfb0	0.053405464
1	0x3d806d4d	0.062708475
2	0x3d705baa	0.058681168
3	0x3d949403	0.072547935
4	0x3d902615	0.070385136
5	0x3dab4cf2	0.083642855
6	0x3d387ca5	0.045040745
7	0x3d4d1df9	0.050077412
8	0x3d74b2b3	0.059740733
9	0x3d9b45f3	0.07581701
10	0x3d4a3183	0.049363624
11	0x3d2025dd	0.03909861
12	0x3da8b4c3	0.082376026
13	0x3d5caecd	0.05387764
14	0x3d1fdada	0.039027072
15	0x3d833f05	0.064085044
16	0x3d842ce3	0.06453874
17	0x3d194457	0.03741869
18	0x3d478c8f	0.04871803
19	0x3d9ac1a6	0.07556467
20	0x3d186dd6	0.037214123
21	0x3d55af63	0.052169215
22	0x3d3cf41b	0.046131235
23	0x3d2b4980	0.041818142
24	0x3d328da6	0.043592118
25	0x3d902c65	0.070397176
26	0x3d34c4a5	0.044132847
27	0x3d3013b5	0.042987544
28	0x3d8507a2	0.064955965
29	0x3d010cda	0.031506397
30	0x3d53ce88	0.051710635
31	0x3d28c6a4	0.041205063

weight f4 [32, 32]
0	0xbc286b3f	-0.010279476
1	0xbd9d2432	-0.07672919
2	0xbd47c474	-0.048771337
3	0x3bdcc54b	0.0067373863
4	0xbdae5961	-0.085131414
5	0xbd66edc6	-0.056379102
6	0x3d98e286	0.07465081
7	0x3def58f1	0.11686886
8	0x3d3bc4f6	0.045842133
9	0x3cfc4070	0.030792445
10	0xbc80aa59	-0.015706228
11	0xb9ebf793	-0.0004500715
12	0x3de79eee	0.1130961
13	0x3caf4006	0.021392833
14	0xbbd6db13	-0.0065568774
15	0x3e0e8001	0.13916017
16	0xbdb548b0	-0.08851755
17	0xbddc7d2d	-0.10766063
18	0xbdc45b03	-0.095876716
19	0xbdc02029	-0.09381134
20	0x3c2df6eb	0.010617952
21	0xbd9fa8e3	-0.077958845
22	0x3da99337	0.08280032
23	0xbdfe9154	-0.12430063
24	0x3d398720	0.04529488
25	0xbcdfb43c	-0.027307622
26	0x3d9dbef3	0.07702436
27	0x3d33c20b	0.043886226
28	0xbd3baae6	-0.04581728
29	0x3c9a58f1	0.018841239
30	0x3cb34a3d	0.021885986
31	0x3d055876	0.032555066
32	0x3cf70d43	0.03015769
33	0x3d1142db	0.03546415
34	0x3d5e7555	0.054311115
35	0xbda931e2	-0.082614675
36	0x3d2dfd77	0.04247805
37	0xbce5432e	-0.027986135
38	0xbdeef5b0	-0.11667955
39	0x3cb74250	0.022370487
40	0xbcbf0388	-0.023317114
41	0x3d5f6926	0.054543637
42	0x3d9fbe27	0.077999406
43	0xbd27917c	-0.04091023
44	0xbdccd403	-0.100013755
45	0xbda6bc21	-0.081413515
46	0x3b5ff827	0.003417501
47	0xbc0351d0	-0.008015111
48	0xbce82491	-0.028337749
49	0x3da6d1ef	0.081455104
50	0x3e1fe746	0.15615568
51	0xbd960046	-0.07324271
52	0xbd98fbfb	-0.074699365
53	0xbbc74e87	-0.0060823592
54	0x3ce5a023	0.02803046
55	0x3c1839da	0.009291137
56	0xbddc6f28	-0.10763389
57	0xbe2f910d	-0.17145176
58	0x3e357a42	0.17722419
59	0xbccb301c	-0.024803214
60	0x3e12727a	0.14301482
61	0x3d333758	0.04375395
62	0x3cf9e293	0.030503547
63	0x3ca76ce9	0.020437675
64	0xbdd23663	-0.1026428
65	0xbdc5973b	-0.096479855
66	0x3dbaff2e	0.09130703
67	0xbd14b6b5	-0.036307056
68	0xbc978075	-0.01849387
69	0xbdaa2ce1	-0.08309341
70	0x3e0a27df	0.13491772
71	0x3d8c6641	0.06855441
72	0xbd7a886a	-0.06116525
73	0xbdd4786d	-0.10374532
74	0x3da00a9a	0.07814522
75	0xbc5b9c92	-0.0134040285
76	0x3d452521	0.048131112
77	0xbd175e9d	-0.036955465
78	0xbce65e6a	-0.028121192
79	0x3d902b0b	0.0703946
80	0x3c827504	0.015924938
81	0xbc434844	-0.011919085
82	0xbc62af63	-0.013835761
83	0x3cf0e403	0.0294056
84	0xbdd052a9	-0.10172016
85	0xbd4ea350	-0.050448716
86	0xbe02b216	-0.12763247
87	0xbdef7e7d	-0.116940476
88	0x3d93e2c0	0.072209835
89	0x3c4844fc	0.012223478
90	0xbd0ffebf	-0.035155054
91	0xbdb6503a	-0.08902021
92	0xbd0e0d5d	-0.034680713
93	0xbdbabf98	-0.09118575
94	0x3cbd1bc2	0.023084525
95	0xb8cfda0f	-9.911146e-05
96	0xbd8cf249	-0.0688215
97	0x3da11aba	0.07866426
98	0xbe364455	-0.17799504
99	0xbbd9c444	-0.006645711
100	0xbd99e205	-0.07513813
101	0x3d85f37e	0.06540583
102	0xbe0659b2	-0.13120154
103	0xbda65bf2	-0.08123006
104	0x3bad1a8a	0.0052827047
105	0x3d82e3df	0.06391119
106	0xbcf497f6	-0.029857617
107	0x3c9b7c12	0.01898006
108	0x3d62f089	0.055405173
109	0xbe657c46	-0.22410688
110	0x3d562c76	0.052288495
111	0x3d73ed94	0.059552744
112	0x3d3ba19b	0.045808416
113	0x3e1d1a24	0.15342003
114	0x3d78305c	0.060592994
115	0xbdde0895	-0.10841481
116	0x3d143bf0	0.036189973
117	0x3caa5c55	0.02079598
118	0xbbbb9d9c	-0.0057255756
119	0xbd492a73	-0.04911275
120	0x3c121e0b	0.008918296
121	0x3e016da5	0.12639482
122	0x3d4ffea4	0.050779954
123	0xbcb4dfc1	-0.02207935
124	0xbd5afebb	-0.053465586
125	0xbbe043d2	-0.0068440223
126	0x3aa18003	0.0012321476
127	0x3ce476d9	0.027888702
128	0xbd8f67eb	-0.07002243
129	0xbd739753	-0.059470486
130	0x3da8911e	0.08230804
131	0x3b82c49d	0.0039907233
132	0x3e04714e	0.12933847
133	0xbe14c80b	-0.14529435
134	0xbd4d5689	-0.050131354
135	0x3db27339	0.08713383
136	0xbd618ef0	-0.055067956
137	0x3df8c1a7	0.12146311
138	0xbcf19eee	-0.029494729
139	0xbe1970c6	-0.14984426
140	0xbcda7597	-0.0266674
141	0x3d056d2b	0.032574814
142	0x3daa0089	0.08300883
143	0x3d4af1b8	0.049546927
144	0x3d809dda	0.06280108
145	0x3dbeb950	0.09312689
146	0x3b59eb1e	0.0033251713
147	0xbd8aad0b	-0.067712866
148	0x3d5490e1	0.05189598
149	0x3d9a4f6c	0.0753468
150	0xbd60cf47	-0.054885175
151	0xbaaf567a	-0.0013377212
152	0xbc953eab	-0.018218359
153	0xbc4dedc1	-0.012568892
154	0xbd9fac30	-0.07796514
155	0xbb0cee79	-0.0021504445
156	0x3c832a18	0.016011283
157	0x3d90f5b3	0.070781134
158	0x3cdf1da1	0.027235808
159	0x3d1d1ad4	0.038355663
160	0x3c8ccbea	0.017187078
161	0x3d7d1bf2	0.06179423
162	0xbe0b9ab7	-0.13633238
163	0xbdcc3ea0	-0.09972882
164	0x3df4e84b	0.11958369
165	0x3d7da7e7	0.061927702
166	0x3ce4744d	0.027887488
167	0x3b9fb0e3	0.0048733815
168	0x3d3dba8a	0.046320476
169	0x3d4e58dd	0.050377715
170	0xbe299f84	-0.16564757
171	0x3cfa9b5d	0.030591661
172	0xbccd7e5f	-0.025084672
173	0xbd9c1d6f	-0.076228015
174	0x3ba173ae	0.00492712
175	0x3c2394d2	0.009984212
176	0x3da4df55	0.0805041
177	0xb94a372c	-0.00019284774
178	0xbddbe33f	-0.10736703
179	0x3d578207	0.052614238
180	0x3d14cc69	0.036327753
181	0x3bd8d8ef	0.0066176574
182	0xbc8245fb	-0.01590251
183	0x3d876eb3	0.06612911
184	0x3c57de9d	0.013175634
185	0x3d858e32	0.06521262
186	0xbdcc8a6e	-0.09987341
187	0x3ca7b4e9	0.020472007
188	0xbd48d750	-0.049033463
189	0x3d5cf6fa	0.053946473
190	0x3d4cb307	0.04997542
191	0x3de7607b	0.11297699
192	0xbc84972b	-0.016185364
193	0x3db262e2	0.08710267
194	0xbe0d4c6f	-0.13798688
195	0xbe03e74e	-0.12881204
196	0x3d42386c	0.04741709
197	0x3df29c09	0.118461676
198	0xbc55dbd7	-0.013052902
199	0x3cf3b8aa	0.02975114
200	0xbd351eaa	-0.044218697
201	0xbd899ea9	-0.06719715
202	0x3d2b460c	0.04181485
203	0x3d6265cd	0.055272866
204	0xbc8c1450	-0.01709953
205	0xbd1631d7	-0.036668625
206	0xbc82b88c	-0.01595714
207	0x3d11d700	0.03560543
208	0x3d4c576b	0.049888056
209	0xbd95423e	-0.07288025
210	0xbdbbd909	-0.091722555
211	0x3d6c0a9f	0.057627317
212	0xbc507508	-0.012723215
213	0xbd068371	-0.032840196
214	0x3d866852	0.06562866
215	0x3da53b12	0.080679074
216	0x3b880e3d	0.004152088
217	0x3cfd6664	0.030932613
218	0xbe0f39f3	-0.1398695
219	0x3cc89ade	0.024487909
220	0x3d67845d	0.056522716
221	0xbd960ddf	-0.073268645
222	0xbd6f39a9	-0.0584046
223	0x3c0fffc5	0.008789008
224	0x3d3b071f	0.045661088
225	0x3d0df4f7	0.034657445
226	0xbb32cd0a	-0.0027282857
227	0xbbfb88c0	-0.007676214
228	0xbcf6bb26	-0.030118536
229	0xbcbe1b97	-0.023206515
230	0xbcbfcb5f	-0.023412405
231	0x3d701656	0.05861505
232	0xbdc36e0c	-0.09542474
233	0x3c2007bf	0.009767472
234	0x3dae0cd7	0.08498543
235	0x3d8c38f8	0.068468034
236	0xbca9b686	-0.020716917
237	0x3c16da47	0.009207315
238	0xbd093709	-0.03349975
239	0xbd82e05b	-0.06390449
240	0x3cc7fa9c	0.024411492
241	0x3bdab334	0.0066741947
242	0x3d010154	0.031495407
243	0x3d15b73a	0.03655169
244	0x3d861746	0.06547408
245	0xbd4f8b00	-0.05066967
246	0xbca8b53d	-0.020594234
247	0x3c2a6e39	0.010402256
248	0xbda6c00e	-0.081421
249	0xbbbd6e6b	-0.005780985
250	0x3d30c4be	0.043156378
251	0xbde45b36	-0.111502096
252	0x3d85ada6	0.065272614
253	0x3d3c4367	0.045962717
254	0xbd33b69d	-0.043875325
255	0xbe02f6a9	-0.12789406

bias f4 [32]
0	0x3569ab10	8.704819e-07
1	0xb5ee3861	-1.774879e-06
2	0x36e36998	6.77742e-06
3	0xb6620138	-3.3677334e-06
4	0xb6c060b9	-5.733306e-06
5	0x3539cba9	6.9214235e-07
6	0xb6c9e119	-6.0164716e-06
7	0x35c58955	1.4717613e-06
8	0x37975a4b	1.8042649e-05
9	0xb680e13e	-3.840919e-06
10	0x36ccadfb	6.0999278e-06
11	0xb6d1be3f	-6.250833e-06
12	0x369a4b9a	4.598359e-06
13	0xb6e139d2	-6.7122537e-06
14	0x36bf0308	5.6925965e-06
15	0xb83661a5	-4.348312e-05
16	0xb431b2b2	-1.6549419e-07
17	0x364f99ad	3.0934855e-06
18	0x37171ab1	9.006516e-06
19	0xb6ce3bbf	-6.1462338e-06
20	0x33e63fcc	1.0721814e-07
21	0x36758405	3.658469e-06
22	0x36bc507d	5.6122067e-06
23	0xb61fbdf0	-2.3803404e-06
24	0x36b529eb	5.3991002e-06
25	0x36293e7d	2.5219335e-06
26	0xb7482fb8	-1.1932039e-05
27	0xb6b83805	-5.490149e-06
28	0xb646cd57	-2.9623823e-06
29	0xb5388e11	-6.8752075e-07
30	0xb7cdb5e3	-2.4522602e-05
31	0xb5fb21bd	-1.8710776e-06

weight f4 [32]
0	0x3e6833f7	0.22676073
1	0x3e45fdbb	0.19335072
2	0x3eb35063	0.35022268
3	0x3e8309ca	0.25593406
4	0x3e768f0e	0.24078009
5	0x3e32a5a6	0.17446002
6	0x3e5994e6	0.21248206
7	0x3e294ae5	0.16532476
8	0x3e6eff40	0.23339558
9	0x3e6c1eb5	0.23058589
10	0x3e918350	0.28420496
11	0x3e5ebce7	0.21751748
12	0x3e864e1b	0.26231465
13	0x3e608d6d	0.2192895
14	0x3e84d6ea	0.25945216
15	0x3e486497	0.19569622
16	0x3e70a89d	0.23501821
17	0x3e5c49a4	0.21512467
18	0x3e8b800b	0.27246127
19	0x3e50a5ce	0.2037575
20	0x3e94beb4	0.29051745
21	0x3e360af4	0.17777616
22	0x3e515e76	0.2044619
23	0x3ea19356	0.3155772
24	0x3e817c09	0.25289944
25	0x3e662006	0.22473153
26	0x3e93c264	0.28859246
27	0x3e95d542	0.29264265
28	0x3e5d9109	0.21637358
29	0x3e8c3f9a	0.27392274
30	0x3e3f4bdf	0.18681286
31	0x3e7d42b1	0.24732472
